models/model.pth (torch, 5259 bytes, 7 tensors)

net.0.weight f4 [32, 15]
00000000: 1f1f fb3c 6389 993d 5007 32bd 9bca 87bd
00000010: 3396 2e3e afc2 d7bd 58b2 e33c cc8d 813c
00000020: 5262 a9bc 2e4b debc 3f99 353d c143 35bc
00000030: 13a9 d4bc 3ffb 4d3d a749 a5bc d7ad 833d
00000040: 76f1 183d b500 503e 7b9c 65bc 4e84 03be
00000050: a00e 7abd 5b25 563c 43f8 24bd 99f5 a2bc
00000060: 4e62 c2bc b536 493d 3e02 41bc 8177 bfbc
00000070: ccfe 5f3d 81a2 2dbc 46cb 7dbd 6c0f e03d
00000080: 8b78 2d3e d160 7c3d 7aa6 0b3e c8fd 42be
00000090: baf3 0cbe e442 fabc 77ff c9bc fd68 f0bc
000000a0: ea5c 693d 6586 3cbc fe07 dbbc 1cab 8b3d
000000b0: 1307 f8bc d51b 9f3d f1e7 15bd a1ff d7bd
000000c0: fc06 1abb 2686 033e 490e cd3d 3402 79be
000000d0: 21ad 0d3e 4afe 20bd e8bb 53bd a1bc aa3d
000000e0: bc90 51bc a0fc 44bd d23e d03d 8fb2 3a39
000000f0: 28e3 543e 996f fcbd 09bd a03d 5483 a23d
00000100: 07b7 9cbd 5859 343d 1d90 a83d 90d3 4fbe
00000110: 3a11 28bc 278e 95bc cede 5e3d 83e4 2b3a
00000120: 2884 74bc c0f8 783d 304b 62bc a920 b73c
00000130: 7897 9b3d cb0e bc3b 09f3 d0bc dbad a8bc
00000140: 4b1e 82bc 7727 2a3d 37b1 0f3d 4cea ffbb
00000150: f180 25bc 3166 d13c 585f 51bb 7903 1ebc
00000160: 8b81 ea3c 534c de3c 00cd 6a3d 6726 773b
00000170: 1e6e 943c 2597 bebc dde3 4e3c 795a 6cbc
00000180: 5057 dc37 e176 3f3c b4bf aabc 15bb cebc
00000190: 7b3f 1c3d 5f6a 61bc 6931 ccbc 9536 2f3d
000001a0: a7e2 6d3b 43b6 e03d b187 73bd 634b 753d
000001b0: 29e3 02bd 6780 fe3c 49c0 b83c 06a1 75bd
000001c0: 19b0 94bc 3af9 58bd e89c 84bd 0c21 303d
000001d0: 4483 0ebd 8ac8 77bd 565b 783d 97ee 9fbc
000001e0: 991b 373e 2fe3 c7bd bdd8 a9bd 6d9e 613d
000001f0: 574f 01bd b130 5dbd 1381 823d 4541 573d
00000200: 7afc adbc 6773 cdbc 0f3a 2e3d 39d4 59bc
00000210: 5261 cebc 51f9 3f3d d75b 4a3c ef14 563d
00000220: a78d 4c3d 64c5 4abd f248 abbd 5130 fe3d
00000230: 4783 bc3d c2b5 8abd 82b0 02bd b308 8fbc
00000240: 048a b2bc 7534 103d 428e 35bc 0a61 b1bc
00000250: 154c 213d 46be d6bb ccbc 2d3d b38c 593c
00000260: f6ed a03d f837 1a3d 2a8a 753d f9c5 c5bd
00000270: 6bf9 4bbb 5b5f a1bd faf8 aebc ab05 eabc
00000280: 2db6 573d fa1e 5abc 5d1c efbc 3915 6c3d
00000290: 1069 4bbb 8802 3d3d 8b92 043d e14a 2abc
000002a0: 2d13 cfbc d9a8 a83c 7aee 903c 0e9d bf3c
000002b0: 4af0 d63a eb85 31bc d94f 79bc 43a4 dd3c
000002c0: 336c adbb f5ab 66bc 0b6a 003d 4a7a a83b
000002d0: 70c8 093e ec7e 62bd 78ea 56bc 8f1c 823d
000002e0: 3215 12bb f682 a8bd c699 12bd 2a1a 983d
000002f0: 8cc9 b2bc 398f eebc 54fb 253d 8138 70bc
00000300: db62 f2bc d08b 383d d5f1 2fbc 64a2 8d3d
00000310: ce81 233d b368 333b 1764 e1bc 0c99 44bc
00000320: f758 ffbb 34a7 fe3c 32c7 c8bb 526c 8dbc
00000330: 94eb a2bc bb6c 283d 6b39 22bc 43c2 9bbc
00000340: c157 3b3d 1c57 bb3b cb72 a93c 25db 1e3e
00000350: 3aca e7bd 9028 b03c 7d1d b5bd 7cd4 4b3e
00000360: 518a ac3d bb9e dabd f7e5 1dbc b636 40bc
00000370: 2098 cf3c 3848 bbbb d9f3 41bc a82c e43c
00000380: ec97 0c3c 6db9 7a3d c448 9d3b 099d 0e3d
00000390: 1f0c 383d c928 bb3c 2692 87bd 8802 a5bc
000003a0: a0c6 6bbc 8503 c1bc 6cff e4bc 56e9 383d
000003b0: d5ee 77bc 3623 debc c240 4e3d c05b 48bc
000003c0: 6cd0 c33d 183a c03c de3c a5bd 8341 a5bd
000003d0: 9a73 813d e614 ff3c 1cbe e5bb 6c20 533d
000003e0: cd49 b3bc 0bf4 dcbc 641f e23c 9410 81bc
000003f0: 87bd dabc 18a8 013d abaa 643b 066d 9cbc
0.030654488 0.074969076 -0.043464005 -0.06630441 0.17049484 -0.1053518 0.027795002 0.015814684
-0.020676766 -0.027135458 0.0443356 -0.011063517 -0.025959527 0.050288435 -0.020176722 0.06429642
0.03733965 0.2031277 -0.014014359 -0.12843439 -0.061049104 0.01307043 -0.040275823 -0.0198925
-0.023728516 0.04912444 -0.01178032 -0.023372414 0.054686353 -0.010597826 -0.061961435 0.109404415
0.16940515 0.06161577 0.13637725 -0.19042122 -0.1376485 -0.030549474 -0.024657948 -0.029346937
0.056973375 -0.0115066515 -0.02673721 0.06819746 -0.03027681 0.077689804 -0.03659815 -0.10546804
-0.0023502698 0.12844142 0.1001249 -0.24317247 0.13835575 -0.03930501 -0.051692873 0.08336759
-0.012790855 -0.048092484 0.10168232 0.0001780486 0.20789778 -0.12325973 0.078485556 0.07935205
-0.07652097 0.044030517 0.082306124 -0.20295548 -0.010258013 -0.01825626 0.0544117 0.0006557183
-0.014924087 0.0607841 -0.013811871 0.02235444 0.0759725 0.005739068 -0.025506513 -0.020590713
-0.015883585 0.041541543 0.035081115 -0.007809913 -0.010101543 0.025561424 -0.0031947698 -0.009644383
0.028626224 0.027136004 0.05732441 0.0037712099 0.018118914 -0.02326543 0.012627569 -0.014425867
2.6266702e-05 0.011686058 -0.020843364 -0.025235692 0.038146477 -0.013758271 -0.024925904 0.042776663
0.0036298425 0.10972264 -0.059455577 0.059886348 -0.031954918 0.031067086 0.022552626 -0.059968017
-0.018150376 -0.052972056 -0.0647524 0.043000266 -0.034793153 -0.060493983 0.06063398 -0.019522948
0.17881621 -0.09760129 -0.08293293 0.055082727 -0.031569805 -0.054001514 0.06372275 0.05255248
-0.021238554 -0.025079442 0.042535838 -0.013295227 -0.02519289 0.046868626 0.012350998 0.052266058
0.049939778 -0.049504653 -0.083635226 0.124115594 0.09204727 -0.06772949 -0.031906612 -0.017460203
-0.021794327 0.035206277 -0.01108128 -0.021652717 0.039379198 -0.006553444 0.04241638 0.013278174
0.078578874 0.037651032 0.059946217 -0.09656901 -0.0031124006 -0.07879516 -0.021358956 -0.028567156
0.05266397 -0.013313049 -0.02918833 0.057637427 -0.0031037964 0.046144992 0.032366317 -0.010393829
-0.025277698 0.020588325 0.01769184 0.02339032 0.0016398516 -0.010835151 -0.015216791 0.027055865
-0.0052924394 -0.014079084 0.03135113 0.005141531 0.13455367 -0.055296823 -0.013117425 0.06353103
-0.0022290465 -0.08228104 -0.03579118 0.074268654 -0.02182462 -0.029121028 0.04052289 -0.014661909
-0.029588154 0.04505521 -0.01073881 0.06915739 0.039918713 0.0027375638 -0.027513547 -0.01199938
-0.007792588 0.031085588 -0.0061272616 -0.017263565 -0.019887723 0.04111932 -0.009901385 -0.01901353
0.045737986 0.0057171714 0.02068462 0.15513285 -0.113178685 0.021503717 -0.08843515 0.19905275
0.08424819 -0.10674807 -0.009637347 -0.011731794 0.025341094 -0.0057153963 -0.011837923 0.027853325
0.008581143 0.061211992 0.004799934 0.03481773 0.044933435 0.022846596 -0.066196725 -0.020142809
-0.014390618 -0.023561249 -0.027953826 0.0451444 -0.015132626 -0.0271164 0.050354727 -0.012228906
0.09561238 0.023465201 -0.0806825 -0.08069136 0.063208774 0.031137895 -0.007011188 0.05154459
-0.021885777 -0.026971838 0.027602859 -0.015754975 -0.026701702 0.031654447 0.0034891765 -0.019094955

net.0.bias f4 [32]
00000000: 3424 37be 0a41 383e e718 b63d ac26 b1bd
00000010: 9a75 183d 4d84 47be 7b69 913e 9cf4 52be
00000020: 1c26 3d3e 4fa4 00be 03ac 0dbe 9c37 18bc
00000030: a3c0 763e 823f e53d 3957 94be 25db 28be
00000040: 7b73 703e 9554 4c3e 61cd 43be 358d bdbd
00000050: dd78 a63e 6c24 35be 64c0 463e 68bd 943c
00000060: 93cc c93d a353 863e 3207 c1bc 1a51 85be
00000070: 8463 f9bc 808e fdbd 18cd 52be 25ed aa3b
-0.17884904 0.1799356 0.088914685 -0.08649954 0.03722153 -0.19484062 0.28400788 -0.20601124
0.18471569 -0.12562679 -0.13835149 -0.009290602 0.24096923 0.11193754 -0.28972796 -0.16489847
0.23481552 0.1995414 -0.19121315 -0.09255449 0.32514086 -0.17689675 0.19409329 0.018156722
0.098534726 0.26235685 -0.023563001 -0.26038438 -0.03044296 -0.12380695 -0.2058605 0.005216258

net.1.weight f4 [32]
00000000: 5165 373f ba81 1f3f d9c3 2d3f 02af 443f
00000010: 0181 263f 93d7 063f dc3d 1d3f d27b 343f
00000020: f493 1d3f 7f01 1f3f d209 1e3f d27f 033f
00000030: 235e 343f c589 223f 1950 233f d173 103f
00000040: 5ee3 193f 95dd 333f 53ad 093f 658c db3e
00000050: 0227 2f3f 8b54 3f3f 992d 3f3f 5bba 1d3f
00000060: 8014 3e3f 89c9 2b3f 05bc 1e3f 9117 353f
00000070: b3e6 503f 859f 323f 3c64 113f 7b32 043f
0.7163897 0.6230732 0.67876965 0.7682954 0.65040594 0.5267269 0.61422515 0.70501435
0.61553884 0.6211166 0.61733735 0.51366913 0.7045614 0.6349147 0.63794094 0.5642672
0.6011256 0.7025998 0.53780097 0.4288055 0.68418896 0.7473838 0.7467895 0.6161248
0.7425003 0.67104393 0.62005645 0.70739084 0.8160202 0.6977466 0.5679357 0.5163953

net.1.bias f4 [32]
00000000: 61f8 9d3f a7f5 ac3f 8b2f 8b3f ba60 993f
00000010: 12cb 993f 8d86 a93f 550b 973f dcfb a03f
00000020: d20c b23f 74e3 ae3f 1c77 9a3f 7552 af3f
00000030: c075 a23f a8fd 963f bb4f 953f 7f4c ac3f
00000040: 76b8 af3f ce35 973f 93be b13f 3762 a33f
00000050: 1285 8d3f a76e a23f 52b8 a83f a880 b03f
00000060: de6d 953f 00ef 8f3f de19 953f 967d 7e3f
00000070: d9e4 933f cdc0 9a3f 42ab a83f 06f8 ab3f
1.2341424 1.3512467 1.0873884 1.1982644 1.2015097 1.3244187 1.1800333 1.2576861
1.3910162 1.3663163 1.2067599 1.3697039 1.2692184 1.179616 1.1664957 1.3460845
1.3728168 1.1813295 1.3886284 1.2764348 1.1056235 1.2690018 1.318125 1.3789263
1.1674154 1.1244812 1.1648519 0.9941038 1.1554214 1.2090088 1.3177264 1.3435066

net.1.running_mean f4 [32]
00000000: 7c79 5b3f ee7e 6c3f 2f0c c73f 37a7 983f
00000010: 2781 af3f 2fa4 3c40 7f82 de3f 8828 74bd
00000020: 0459 f63f 99d0 5f3f 3b20 ab3f 7b22 0a40
00000030: 82a9 bb3f f751 ca3f cfe2 f53f 93f3 6d3f
00000040: e6fa a63f 9a54 fd3f b4ee ed3f ce42 ca3f
00000050: 5792 3140 8284 533f 4e7f 5f3f 317d fa3f
00000060: fcaa b53f 2689 7540 3b17 7b3f b06a b8be
00000070: cba0 063f 6bbd 083f 7d5f 9f3f f084 c73f
0.85732245 0.9238118 1.5550593 1.192603 1.3711289 2.947521 1.7383574 -0.059608966
1.9245915 0.8742767 1.3369211 2.1583545 1.4661105 1.5806264 1.9209841 0.9294979
1.3045318 1.9791443 1.8588471 1.5801637 2.7745569 0.82624066 0.87303627 1.9569455
1.4192805 3.8364959 0.9808232 -0.36018896 0.525891 0.5341403 1.2451016 1.5587444

net.1.running_var f4 [32]
00000000: babd 183f 8e72 bf3e 7916 c03e b981 793e
00000010: 4656 143f d93a 6e3f 4d83 9a3e 0bfe 033e
00000020: ff18 eb3e fec4 dd3e 0129 683e 8f4e 313f
00000030: 87e8 dd3e fc26 033f 2b33 c43f b1d5 963e
00000040: be5b f43e cd47 243f 63e3 013f a511 953e
00000050: 08c9 063f b831 713e e22b 483e 31d8 203f
00000060: 0ab8 0d3f e018 863f 2482 2f3f 7b6d 093f
00000070: ac45 303d eaaa 803f 9532 d93e ca3f ba3e
0.596645 0.37392086 0.37517145 0.24365892 0.5794414 0.93058544 0.301783 0.12889878
0.45917508 0.43314356 0.22671892 0.69260496 0.43341467 0.5123136 1.5328115 0.2945991
0.47726244 0.6417206 0.5073759 0.29115024 0.526505 0.23554122 0.1954799 0.6282988
0.55358946 1.0476341 0.68557954 0.5368268 0.043035194 1.0052159 0.42421404 0.36376792

net.4.weight f4 [1, 32]
00000000: 2a5a bf3e 2d34 c53e 822e c53e 8e31 c03e
00000010: 7834 c03e 946b bf3e 8254 aa3e ad99 bd3e
00000020: 344c c33e f72b cb3e 5423 cd3e 5183 c83e
00000030: a2a3 c13e 0bd6 ce3e 6e83 cc3e e9a5 cd3e
00000040: ad05 c73e b7b3 cc3e 5f7f c53e 2194 d23e
00000050: d122 bf3e fc80 be3e 1d0e c33e 7147 c03e
00000060: 696e c53e 82e7 c93e 8e55 cf3e 756f 973e
00000070: 58ce c73e 0a26 c83e b268 cf3e 7fb1 c93e
0.37373477 0.3851637 0.38512045 0.37537807 0.3754003 0.37386763 0.332676 0.37031308
0.38144076 0.3968198 0.40066016 0.39162686 0.37820154 0.40397677 0.39944023 0.40165642
0.38871518 0.39980862 0.3857374 0.41128638 0.3733125 0.37207782 0.38096705 0.37554505
0.385608 0.3943444 0.4049496 0.29577222 0.39024615 0.39091522 0.40509564 0.3939323
